…
INFO:cell_load.data_modules.samplers:Total # cells 96616. Cell set size mean / std before resampling: 46.41 / 18.72.
INFO:cell_load.data_modules.samplers:Creating meta-batches with cell_sentence_len=64...
INFO:cell_load.data_modules.samplers:Of all batches, 2082 were full and 0 were partial.
INFO:cell_load.data_modules.samplers:Sampler created with 2082 batches in 0.03 seconds.
INFO:state._cli._tx._predict:Generating predictions on test set using manual loop...
Processed replogle: 551773 train, 0 val, 96616 test
StateTransitionPerturbationModel(
  (loss_fn): SamplesLoss()
  (gene_decoder): LatentToGeneDecoder(
    (decoder): Sequential(
      (0): Linear(in_features=2000, out_features=1024, bias=True)
      (1): LayerNorm((1024,), eps=1e-05, elementwise_affine=True)
      (2): GELU(approximate='none')
      (3): Dropout(p=0.1, inplace=False)
      (4): Linear(in_features=1024, out_features=1024, bias=True)
      (5): LayerNorm((1024,), eps=1e-05, elementwise_affine=True)
      (6): GELU(approximate='none')
      (7): Dropout(p=0.1, inplace=False)
      (8): Linear(in_features=1024, out_features=512, bias=True)
      (9): LayerNorm((512,), eps=1e-05, elementwise_affine=True)
      (10): GELU(approximate='none')
      (11): Dropout(p=0.1, inplace=False)
      (12): Linear(in_features=512, out_features=2000, bias=True)
      (13): ReLU()
    )
  )
  (pert_encoder): Sequential(
    (0): Linear(in_features=2024, out_features=328, bias=True)
  )
  (basal_encoder): Sequential(
    (0): Linear(in_features=2000, out_features=328, bias=True)
  )
  (transformer_backbone): LlamaBidirectionalModel(
    (embed_tokens): Embedding(32000, 328, padding_idx=0)
    (layers): ModuleList(
      (0-7): 8 x LlamaDecoderLayer(
        (self_attn): LlamaAttention(
          (q_proj): Linear(in_features=328, out_features=768, bias=False)
          (k_proj): Linear(in_features=328, out_features=768, bias=False)
          (v_proj): Linear(in_features=328, out_features=768, bias=False)
          (o_proj): Linear(in_features=768, out_features=328, bias=False)
        )
        (mlp): LlamaMLP(
          (gate_proj): Linear(in_features=328, out_features=3072, bias=False)
          (up_proj): Linear(in_features=328, out_features=3072, bias=False)
          (down_proj): Linear(in_features=3072, out_features=328, bias=False)
          (act_fn): SiLU()
        )
        (input_layernorm): LlamaRMSNorm((328,), eps=1e-06)
        (post_attention_layernorm): LlamaRMSNorm((328,), eps=1e-06)
      )
    )
    (norm): LlamaRMSNorm((328,), eps=1e-06)
    (rotary_emb): NoRoPE()
  )
  (project_out): Sequential(
    (0): Linear(in_features=328, out_features=2000, bias=True)
  )
  (batch_encoder): Embedding(56, 328)
  (relu): ReLU()
)
Predicting:   0%|          | 0/2082 [00:00<?, ?batch/s]INFO:cell_load.data_modules.samplers:Of all batches, 2082 were full and 0 were partial.
Predicting:   0%|          | 1/2082 [00:01<41:36,  1.20s/batch]Predicting:   0%|          | 9/2082 [00:01<03:44,  9.25batch/s]Predicting:   1%|          | 18/2082 [00:01<01:43, 19.89batch/s]Predicting:   1%|          | 26/20
…
