…
13 | relu                   | ReLU                | 0      | train
------------------------------------------------------------------------
24.9 M    Trainable params
4.1 M     Non-trainable params
29.0 M    Total params
116.180   Total estimated model params size (MB)
175       Modules in train mode
0         Modules in eval mode
Processed replogle_concat: 481161 train, 0 val, 173737 test
num_workers: 16
batch size: None
Loading pretrained VAE...
Pretrained VAE loaded!
is_gene_space: True
VAETransitionPerturbationModel(
  (loss_fn): MSELoss()
  (gene_decoder): LatentToGeneDecoder(
    (decoder): Sequential(
      (0): Linear(in_features=2000, out_features=1024, bias=True)
      (1): LayerNorm((1024,), eps=1e-05, elementwise_affine=True)
      (2): GELU(approximate='none')
      (3): Dropout(p=0.1, inplace=False)
      (4): Linear(in_features=1024, out_features=1024, bias=True)
      (5): LayerNorm((1024,), eps=1e-05, elementwise_affine=True)
      (6): GELU(approximate='none')
      (7): Dropout(p=0.1, inplace=False)
      (8): Linear(in_features=1024, out_features=512, bias=True)
      (9): LayerNorm((512,), eps=1e-05, elementwise_affine=True)
      (10): GELU(approximate='none')
      (11): Dropout(p=0.1, inplace=False)
      (12): Linear(in_features=512, out_features=2000, bias=True)
      (13): ReLU()
    )
  )
  (main_loss_fn): SamplesLoss()
  (vae_latent_loss_fn): SamplesLoss()
  (vae): VAE(
    (encoder): Encoder(
      (network): ModuleList(
        (0): Sequential(
          (0): Dropout(p=0.0, inplace=False)
          (1): Linear(in_features=2000, out_features=1024, bias=True)
          (2): BatchNorm1d(1024, eps=1e-05, momentum=0.1, affine=True, track_running_stats=True)
          (3): PReLU(num_parameters=1)
        )
        (1-2): 2 x Sequential(
          (0): Dropout(p=0.0, inplace=False)
          (1): Linear(in_features=1024, out_features=1024, bias=True)
          (2): BatchNorm1d(1024, eps=1e-05, momentum=0.1, affine=True, track_running_stats=True)
          (3): PReLU(num_parameters=1)
        )
        (3): Linear(in_features=1024, out_features=128, bias=True)
      )
    )
    (decoder): Decoder(
      (network): ModuleList(
        (0): Sequential(
          (0): Linear(in_features=128, out_features=1024, bias=True)
          (1): BatchNorm1d(1024, eps=1e-05, momentum=0.1, affine=True, track_running_stats=True)
          (2): PReLU(num_parameters=1)
        )
        (1-2): 2 x Sequential(
          (0): Dropout(p=0.0, inplace=False)
          (1): Linear(in_features=1024, out_features=1024, bias=True)
          (2): BatchNorm1d(1024, eps=1e-05, momentum=0.1, affine=True, track_running_stats=True)
          (3): PReLU(num_parameters=1)
        )
        (3): Linear(in_features=1024, out_features=2000, bias=True)
      )
    )
    (loss_autoencoder): MSELoss()
  )
  (vae_encoder): Encoder(
    (network): ModuleList(
      (0): Sequential(
        (0): Dropout(p=0.0, inplace=False)
        (1): Linear(in_features=2000, out_features=1024, bias=True)
        (2): BatchNorm1d(1024, eps=1e-05, momentum=0.1, affine=True, track_running_stats=True)
        (3): PReLU(num_parameters=1)
      )
      (1-2): 2 x Sequential(
        (0): Dropout(p=0.0, inplace=False)
        (1): Linear(in_features=1024, out_features=1024, bias=True)
        (2): BatchNorm1d(1024, eps=1e-05, momentum=0.1, affine=True, track_running_stats=True)
        (3): PReLU(num_parameters=1)
      )
      (3): Linear(in_features=1024, out_features=128, bias=True)
    )
  )
  (vae2transf_dim_encoder): Sequential(
    (0): Linear(in_features=128, out_features=128, bias=True)
  )
  (pert_encoder): Sequential(
    (0): Linear(in_features=2024, out_features=128, bias=True)
  )
  (transformer_backbone): LlamaModel(
    (embed_tokens): Embedding(32000, 128, padding_idx=0)
    (layers): ModuleList(
      (0-7): 8 x LlamaDecoderLayer(
        (self_attn): LlamaAttention(
          (q_proj): Linear(in_features=128, out_features=696, bias=False)
          (k_proj): Linear(in_features=128, out_features=696, bias=False)
          (v_proj): Linear(in_features=128, out_features=696, bias=False)
          (o_proj): Linear(in_features=696, out_features=128, bias=False)
        )
        (mlp): LlamaMLP(
          (gate_proj): Linear(in_features=128, out_features=2784, bias=False)
          (up_proj): Linear(in_features=128, out_features=2784, bias=False)
          (down_proj): Linear(in_features=2784, out_features=128, bias=False)
          (act_fn): SiLU()
        )
        (input_layernorm): LlamaRMSNorm((128,), eps=1e-06)
        (post_attention_layernorm): LlamaRMSNorm((128,), eps=1e-06)
      )
    )
    (norm): LlamaRMSNorm((128,), eps=1e-06)
    (rotary_emb): LlamaRotaryEmbedding()
  )
  (vae_decoder): Decoder(
    (network): ModuleList(
      (0): Sequential(
        (0): Linear(in_features=128, out_features=1024, bias=True)
        (1): BatchNorm1d(1024, eps=1e-05, momentum=0.1, affine=True, track_running_stats=True)
        (2): PReLU(num_parameters=1)
      )
      (1-2): 2 x Sequential(
        (0): Dropout(p=0.0, inplace=False)
        (1): Linear(in_features=1024, out_features=1024, bias=True)
        (2): BatchNorm1d(1024, eps=1e-05, momentum=0.1, affine=True, track_running_stats=True)
        (3): PReLU(num_parameters=1)
      )
      (3): Linear(in_features=1024, out_features=2000, bias=True)
    )
  )
  (transf2vae_dim_decoder): Sequential(
    (0): Linear(in_features=128, out_features=128, bias=True)
  )
  (project_out): Sequential(
    (0): Linear(in_features=128, out_features=128, bias=True)
  )
  (batch_encoder): Embedding(56, 128)
  (relu): ReLU()
)
Model created. Estimated params size: 0.11 GB
Building trainer with kwargs: {'accelerator': 'gpu', 'devices': 1, 'strategy': 'auto', 'max_steps': 80000, 'check_val_every_n_epoch': None, 'val_check_interval': 2000, 'logger': [<state.tx.utils.RobustCSVLogger object at 0x7fd5b89dda00>], 'plugins': [], 'callbacks': [<lightning.pytorch.callbacks.model_checkpoint.ModelCheckpoint object at 0x7fd5b89df6e0>, <state.tx.callbacks.batch_speed_monitor.BatchSpeedMonitorCallback object at 0x7fd5b89dc5f0>], 'gradient_clip_val': 10, 'accumulate_grad_batches': 1, 'use_distributed_sampler': False}
…
