Job started on Tue Jan 13 18:33:14 CST 2026
Running Config: 0.3_0.7 | Weights: S=1, M=0.3, C=0.7
/work/home/cryoem666/xyf/temp/pycharm/state/gene_perturnb_state/data/replogle.h5ad
replogle_proper jurkat {'val': 104, 'test': 624}
Processed replogle: 581664 train, 22454 val, 63321 test
num_workers: 8
batch size: None
BA LOSS BUILT: True
OurStateTransitionPerturbationModel(
  (loss_fn): BioAlignedLoss(
    (sinkhorn_loss): SamplesLoss()
  )
  (gene_decoder): LatentToGeneDecoder(
    (decoder): Sequential(
      (0): Linear(in_features=6642, out_features=1024, bias=True)
      (1): LayerNorm((1024,), eps=1e-05, elementwise_affine=True)
      (2): GELU(approximate='none')
      (3): Dropout(p=0.1, inplace=False)
      (4): Linear(in_features=1024, out_features=1024, bias=True)
      (5): LayerNorm((1024,), eps=1e-05, elementwise_affine=True)
      (6): GELU(approximate='none')
      (7): Dropout(p=0.1, inplace=False)
      (8): Linear(in_features=1024, out_features=512, bias=True)
      (9): LayerNorm((512,), eps=1e-05, elementwise_affine=True)
      (10): GELU(approximate='none')
      (11): Dropout(p=0.1, inplace=False)
      (12): Linear(in_features=512, out_features=2000, bias=True)
      (13): ReLU()
    )
  )
  (pert_encoder): Sequential(
    (0): Linear(in_features=2024, out_features=128, bias=True)
  )
  (basal_encoder): Sequential(
    (0): Linear(in_features=6642, out_features=128, bias=True)
  )
  (transformer_backbone): LlamaModel(
    (embed_tokens): Embedding(32000, 128, padding_idx=0)
    (layers): ModuleList(
      (0-7): 8 x LlamaDecoderLayer(
        (self_attn): LlamaAttention(
          (q_proj): Linear(in_features=128, out_features=696, bias=False)
          (k_proj): Linear(in_features=128, out_features=696, bias=False)
          (v_proj): Linear(in_features=128, out_features=696, bias=False)
          (o_proj): Linear(in_features=696, out_features=128, bias=False)
        )
        (mlp): LlamaMLP(
          (gate_proj): Linear(in_features=128, out_features=2784, bias=False)
          (up_proj): Linear(in_features=128, out_features=2784, bias=False)
          (down_proj): Linear(in_features=2784, out_features=128, bias=False)
          (act_fn): SiLU()
        )
        (input_layernorm): LlamaRMSNorm((128,), eps=1e-06)
        (post_attention_layernorm): LlamaRMSNorm((128,), eps=1e-06)
      )
    )
    (norm): LlamaRMSNorm((128,), eps=1e-06)
    (rotary_emb): LlamaRotaryEmbedding()
  )
  (project_out): Sequential(
    (0): Linear(in_features=128, out_features=6642, bias=True)
  )
  (batch_encoder): Embedding(56, 128)
  (relu): ReLU()
)
Model created. Estimated params size: 0.10 GB
Building trainer with kwargs: {'accelerator': 'gpu', 'devices': 1, 'strategy': 'auto', 'max_steps': 80000, 'check_val_every_n_epoch': None, 'val_check_interval': 2000, 'logger': [<state.tx.utils.RobustCSVLogger object at 0x7f74001bfb30>], 'plugins': [], 'callbacks': [<lightning.pytorch.callbacks.model_checkpoint.ModelCheckpoint object at 0x7f74003f27e0>, <state.tx.callbacks.batch_speed_monitor.BatchSpeedMonitorCallback object at 0x7f73df5b36b0>], 'gradient_clip_val': 10, 'accumulate_grad_batches': 1, 'use_distributed_sampler': False}
…
