…
INFO:cell_load.data_modules.samplers:Creating meta-batches with cell_sentence_len=64...
INFO:cell_load.data_modules.samplers:Of all batches, 1105 were full and 0 were partial.
INFO:cell_load.data_modules.samplers:Sampler created with 1105 batches in 0.02 seconds.
INFO:state._cli._tx._predict:Generating predictions on test set using manual loop...
Processed replogle: 587324 train, 20945 val, 58114 test
BA LOSS BUILT: True
OurStateTransitionPerturbationModel(
  (loss_fn): BioAlignedLoss(
    (sinkhorn_loss): SamplesLoss()
  )
  (gene_decoder): LatentToGeneDecoder(
    (decoder): Sequential(
      (0): Linear(in_features=6642, out_features=1024, bias=True)
      (1): LayerNorm((1024,), eps=1e-05, elementwise_affine=True)
      (2): GELU(approximate='none')
      (3): Dropout(p=0.1, inplace=False)
      (4): Linear(in_features=1024, out_features=1024, bias=True)
      (5): LayerNorm((1024,), eps=1e-05, elementwise_affine=True)
      (6): GELU(approximate='none')
      (7): Dropout(p=0.1, inplace=False)
      (8): Linear(in_features=1024, out_features=512, bias=True)
      (9): LayerNorm((512,), eps=1e-05, elementwise_affine=True)
      (10): GELU(approximate='none')
      (11): Dropout(p=0.1, inplace=False)
      (12): Linear(in_features=512, out_features=2000, bias=True)
      (13): ReLU()
    )
  )
  (pert_encoder): Sequential(
    (0): Linear(in_features=2024, out_features=128, bias=True)
  )
  (basal_encoder): Sequential(
    (0): Linear(in_features=6642, out_features=128, bias=True)
  )
  (transformer_backbone): LlamaModel(
    (embed_tokens): Embedding(32000, 128, padding_idx=0)
    (layers): ModuleList(
      (0-7): 8 x LlamaDecoderLayer(
        (self_attn): LlamaAttention(
          (q_proj): Linear(in_features=128, out_features=696, bias=False)
          (k_proj): Linear(in_features=128, out_features=696, bias=False)
          (v_proj): Linear(in_features=128, out_features=696, bias=False)
          (o_proj): Linear(in_features=696, out_features=128, bias=False)
        )
        (mlp): LlamaMLP(
          (gate_proj): Linear(in_features=128, out_features=2784, bias=False)
          (up_proj): Linear(in_features=128, out_features=2784, bias=False)
          (down_proj): Linear(in_features=2784, out_features=128, bias=False)
          (act_fn): SiLU()
        )
        (input_layernorm): LlamaRMSNorm((128,), eps=1e-06)
        (post_attention_layernorm): LlamaRMSNorm((128,), eps=1e-06)
      )
    )
    (norm): LlamaRMSNorm((128,), eps=1e-06)
    (rotary_emb): LlamaRotaryEmbedding()
  )
  (project_out): Sequential(
    (0): Linear(in_features=128, out_features=6642, bias=True)
  )
  (batch_encoder): Embedding(56, 128)
  (relu): ReLU()
)
Predicting:   0%|          | 0/1105 [00:00<?, ?batch/s]INFO:cell_load.data_modules.samplers:Of all batches, 1105 were full and 0 were partial.
Predicting:   0%|          | 1/1105 [00:04<1:28:59,  4.84s/batch]Predicting:   0%|          | 5/1105 [00:04<13:38,  1.34batch/s]  Predicting:   1%|          | 11/1105 [00:05<05:00,  3.64batch/s]Predicting:   2%|▏         | 1
…
