…
INFO:cell_load.data_modules.samplers:Creating meta-batches with cell_sentence_len=64...
INFO:cell_load.data_modules.samplers:Of all batches, 3416 were full and 0 were partial.
INFO:cell_load.data_modules.samplers:Sampler created with 3416 batches in 0.05 seconds.
INFO:state._cli._tx._predict:Generating predictions on test set using manual loop...
Processed replogle: 481161 train, 0 val, 173737 test
Loading pretrained VAE...
Pretrained VAE loaded!
is_gene_space: True
VAETransitionPerturbationModel(
  (loss_fn): MSELoss()
  (gene_decoder): LatentToGeneDecoder(
    (decoder): Sequential(
      (0): Linear(in_features=2000, out_features=1024, bias=True)
      (1): LayerNorm((1024,), eps=1e-05, elementwise_affine=True)
      (2): GELU(approximate='none')
      (3): Dropout(p=0.1, inplace=False)
      (4): Linear(in_features=1024, out_features=1024, bias=True)
      (5): LayerNorm((1024,), eps=1e-05, elementwise_affine=True)
      (6): GELU(approximate='none')
      (7): Dropout(p=0.1, inplace=False)
      (8): Linear(in_features=1024, out_features=512, bias=True)
      (9): LayerNorm((512,), eps=1e-05, elementwise_affine=True)
      (10): GELU(approximate='none')
      (11): Dropout(p=0.1, inplace=False)
      (12): Linear(in_features=512, out_features=2000, bias=True)
      (13): ReLU()
    )
  )
  (main_loss_fn): SamplesLoss()
  (vae_latent_loss_fn): SamplesLoss()
  (vae): VAE(
    (encoder): Encoder(
      (network): ModuleList(
        (0): Sequential(
          (0): Dropout(p=0.0, inplace=False)
          (1): Linear(in_features=2000, out_features=1024, bias=True)
          (2): BatchNorm1d(1024, eps=1e-05, momentum=0.1, affine=True, track_running_stats=True)
          (3): PReLU(num_parameters=1)
        )
        (1-2): 2 x Sequential(
          (0): Dropout(p=0.0, inplace=False)
          (1): Linear(in_features=1024, out_features=1024, bias=True)
          (2): BatchNorm1d(1024, eps=1e-05, momentum=0.1, affine=True, track_running_stats=True)
          (3): PReLU(num_parameters=1)
        )
        (3): Linear(in_features=1024, out_features=128, bias=True)
      )
    )
    (decoder): Decoder(
      (network): ModuleList(
        (0): Sequential(
          (0): Linear(in_features=128, out_features=1024, bias=True)
          (1): BatchNorm1d(1024, eps=1e-05, momentum=0.1, affine=True, track_running_stats=True)
          (2): PReLU(num_parameters=1)
        )
        (1-2): 2 x Sequential(
          (0): Dropout(p=0.0, inplace=False)
          (1): Linear(in_features=1024, out_features=1024, bias=True)
          (2): BatchNorm1d(1024, eps=1e-05, momentum=0.1, affine=True, track_running_stats=True)
          (3): PReLU(num_parameters=1)
        )
        (3): Linear(in_features=1024, out_features=2000, bias=True)
      )
    )
    (loss_autoencoder): MSELoss()
  )
  (vae_encoder): Encoder(
    (network): ModuleList(
      (0): Sequential(
        (0): Dropout(p=0.0, inplace=False)
        (1): Linear(in_features=2000, out_features=1024, bias=True)
        (2): BatchNorm1d(1024, eps=1e-05, momentum=0.1, affine=True, track_running_stats=True)
        (3): PReLU(num_parameters=1)
      )
      (1-2): 2 x Sequential(
        (0): Dropout(p=0.0, inplace=False)
        (1): Linear(in_features=1024, out_features=1024, bias=True)
        (2): BatchNorm1d(1024, eps=1e-05, momentum=0.1, affine=True, track_running_stats=True)
        (3): PReLU(num_parameters=1)
      )
      (3): Linear(in_features=1024, out_features=128, bias=True)
    )
  )
  (vae2transf_dim_encoder): Sequential(
    (0): Linear(in_features=128, out_features=128, bias=True)
  )
  (pert_encoder): Sequential(
    (0): Linear(in_features=2024, out_features=128, bias=True)
  )
  (transformer_backbone): LlamaModel(
    (embed_tokens): Embedding(32000, 128, padding_idx=0)
    (layers): ModuleList(
      (0-7): 8 x LlamaDecoderLayer(
        (self_attn): LlamaAttention(
          (q_proj): Linear(in_features=128, out_features=696, bias=False)
          (k_proj): Linear(in_features=128, out_features=696, bias=False)
          (v_proj): Linear(in_features=128, out_features=696, bias=False)
          (o_proj): Linear(in_features=696, out_features=128, bias=False)
        )
        (mlp): LlamaMLP(
          (gate_proj): Linear(in_features=128, out_features=2784, bias=False)
          (up_proj): Linear(in_features=128, out_features=2784, bias=False)
          (down_proj): Linear(in_features=2784, out_features=128, bias=False)
          (act_fn): SiLU()
        )
        (input_layernorm): LlamaRMSNorm((128,), eps=1e-06)
        (post_attention_layernorm): LlamaRMSNorm((128,), eps=1e-06)
      )
    )
    (norm): LlamaRMSNorm((128,), eps=1e-06)
    (rotary_emb): LlamaRotaryEmbedding()
  )
  (vae_decoder): Decoder(
    (network): ModuleList(
      (0): Sequential(
        (0): Linear(in_features=128, out_features=1024, bias=True)
        (1): BatchNorm1d(1024, eps=1e-05, momentum=0.1, affine=True, track_running_stats=True)
        (2): PReLU(num_parameters=1)
      )
      (1-2): 2 x Sequential(
        (0): Dropout(p=0.0, inplace=False)
        (1): Linear(in_features=1024, out_features=1024, bias=True)
        (2): BatchNorm1d(1024, eps=1e-05, momentum=0.1, affine=True, track_running_stats=True)
        (3): PReLU(num_parameters=1)
      )
      (3): Linear(in_features=1024, out_features=2000, bias=True)
    )
  )
  (transf2vae_dim_decoder): Sequential(
    (0): Linear(in_features=128, out_features=128, bias=True)
  )
  (project_out): Sequential(
    (0): Linear(in_features=128, out_features=128, bias=True)
  )
  (batch_encoder): Embedding(56, 128)
  (relu): ReLU()
)
Predicting:   0%|          | 0/3416 [00:00<?, ?batch/s]INFO:cell_load.data_modules.samplers:Of all batches, 3416 were full and 0 were partial.
Predicting:   0%|          | 1/3416 [00:01<1:32:22,  1.62s/batch]Predicting:   0%|          | 7/3416 [00:01<10:33,  5.38batch/s]  Predicting:   0%|          | 12/3416 [00:01<05:41,  9.96batch/s]Predicting:   0%|          | 1
…
